tests/data/model-tests/checkpoint.pt (torch, 953323 bytes, 1 tensors)

projection.weight f4 [2380, 100]
0.6123581 0.43376935 0.79758775 -0.49826536 -1.2849793 -0.09059582 0.95383054 -0.53788626
0.091119535 -0.98485184 -1.1527337 0.19471999 1.9462502 -0.16143565 0.88319534 -0.96163774
0.5062308 -0.6996762 -1.8880458 1.18991 0.7527988 1.4595221 1.6365638 -0.4287433
0.10435074 -1.1958619 -0.66030407 0.5820735 -1.6854187 -2.111138 0.07191236 -0.38662675
0.89702886 1.9974009 -1.1498706 -0.73995674 0.666423 -0.4238579 0.69981396 0.17055932
-0.21251355 0.8190179 -0.7458224 -0.6181252 0.58414096 -0.31217808 -0.18216297 0.6934229
0.2004879 -0.43042344 2.6283262 0.5395313 0.9889616 -2.1991127 0.66882104 0.51521975
-0.18021359 -0.54528135 0.9098281 0.5590527 0.3749407 0.8793745 -0.12020957 0.60053986
-1.1406293 -0.34157246 0.8786704 -0.38973686 0.16548958 -0.1794241 0.5242776 -1.2066813
0.06407239 0.552299 0.026542157 0.61205494 -0.09456792 0.3921834 -0.038032413 -1.1221058
0.7642241 -0.9514986 0.42400885 0.111786515 0.41864488 -0.851616 0.6247056 0.38043198
0.8284284 0.19707996 -0.4405641 -0.74226075 0.15989806 -1.5810978 -0.5040576 -0.87316465
1.7273717 0.4587481 1.4378834 -0.87735885 -0.0616991 -0.3851502 1.7627574 -0.8767981
-1.4277929 0.07470248 1.6342212 0.13024125 -0.7506246 0.9449396 -0.982621 -0.39983222
0.09162251 0.35952014 0.5801219 -0.92610514 0.36891526 0.7639303 -1.0672935 0.0420965
-0.23552239 -0.005224198 0.975758 -1.28458 0.9057235 2.23311 0.8731016 0.32227287
0.5651443 1.4932978 1.0441169 0.022531591 0.47671017 0.28288788 0.2513972 0.07881399
0.91249025 -0.9038535 -0.21903299 0.6524274 0.51853025 0.5477978 2.1208515 0.28845865
-0.39266255 1.0647773 0.80046904 1.1987332 0.30707395 0.45007014 0.46783894 -0.49791667
-0.9710214 -0.5977294 0.50557524 0.6239811 -0.34788087 -0.7188438 -0.08922166 1.770904
-0.5023841 1.7295878 -1.6070263 0.39639708 -0.4366654 -0.58361995 -1.1333674 0.7303846
0.30727872 0.27235678 -0.57103896 0.08764315 1.1000648 0.3116193 -1.3363254 1.3412973
-0.49742916 0.009528708 0.57254386 0.18821831 2.0463855 0.97267026 -1.4845033 0.770491
0.09072794 -2.5982308 0.2816526 -0.63450813 -0.05824677 1.4586184 -0.5326568 0.09415903
0.8457109 -0.7064931 1.6398674 0.61507654 0.44564718 1.1956137 -0.36452928 -1.4959961
0.3030976 -0.9599576 0.4818763 -1.9621719 -0.9192241 1.4669958 1.0975113 -1.1979121
-1.7455763 -0.14153446 -0.7310286 0.42106548 0.051898062 -0.36943266 0.35972917 -1.5956769
1.7199728 0.009142095 0.4673276 -0.63068354 0.26549354 0.9729063 0.14511654 -1.6712213
2.1214852 -1.9645404 -1.6984228 0.68119174 0.048154376 -1.5331665 -1.532627 -1.7928003
0.008252628 0.03159498 -0.4181983 0.4142365 -0.975891 1.1364207 0.23424038 2.41417
-0.34512284 0.08716665 0.6831318 -1.5029854 0.019426461 -2.6943817 0.32259893 -0.41327015
0.7076928 -0.18764785 0.6865892 0.12700763 0.60009986 0.94707066 0.16343601 0.28975493
00000000: 80c3 1c3f 0417 de3e b62e 4c3f a31c ffbe
00000010: 347a a4bf 4d8a b9bd 3d2e 743f eab2 09bf
00000020: e19c ba3d 401f 7cbf c78c 93bf ad64 473e
00000030: ba1e f93f 634f 25be 1719 623f e42d 76bf
00000040: 5798 013f fb1d 33bf 7cab f1bf f94e 983f
00000050: 6cb7 403f 9fd1 ba3f ec7a d13f 3e84 dbbe
00000060: d7b5 d53d 0112 99bf b009 29bf c502 153f
00000070: cdbb d7bf e31c 07c0 ca46 933d f1f3 c5be
00000080: afa3 653f d5aa ff3f f62e 93bf ce6d 3dbf
00000090: b39a 2a3f e703 d9be 0227 333f 1aa7 2e3e
000000a0: 279d 59be 28ab 513f 38ee 3ebf 743d 1ebf
000000b0: 438a 153f ced5 9fbe ee88 3abe 2a84 313f
000000c0: b34c 4d3e 7660 dcbe 7f36 2840 b91e 0a3f
000000d0: 962c 7d3f 43be 0cc0 db37 2b3f 71e5 033f
000000e0: e989 38be 8f97 0bbf 7fea 683f 141e 0f3f
000000f0: 3af8 bf3e b01e 613f 6f30 f6bd fbbc 193f
00000100: 2400 92bf 96e2 aebe 8bf0 603f 978b c7be
00000110: 1a76 293e f4ba 37be 0f37 063f 8874 9abf
00000120: 6338 833d 7863 0d3f f06e d93c a2af 1c3f
00000130: d3ac c1bd 43cc c83e e0c7 1bbd 2aa1 8fbf
00000140: 31a4 433f 6a95 73bf b017 d93e 54f0 e43d
00000150: 9f58 d63e 8203 5abf b5ec 1f3f fbc7 c23e
00000160: e213 543f 54cf 493e 9e91 e1be cd04 3ebf
00000170: 51bc 233e 6a61 cabf eb09 01bf b887 5fbf
00000180: 841a dd3f 08e1 ea3e 900c b83f 979a 60bf
00000190: 32b8 7cbd 6832 c5be 09a2 e13f d775 60bf
000001a0: ebc1 b6bf 9dfd 983d 292e d13f f65d 053e
000001b0: ef28 40bf 90e7 713f 0d8d 7bbf cfb6 ccbe
000001c0: 95a4 bb3d 0613 b83e de82 143f 3a15 6dbf
000001d0: 76e2 bc3e f090 433f 139d 88bf 616d 2c3d
000001e0: c82c 71be c02f abbb 47cb 793f 1e6d a4bf
000001f0: 7fdd 673f 46eb 0e40 9683 5f3f f300 a53e
00000200: 4cad 103f 6224 bf3f 9fa5 853f 2c94 b83c
00000210: 5b13 f43e aed6 903e 22b7 803e 3b69 a13d
00000220: f698 693f f162 67bf 2f4a 60be 7b05 273f
00000230: 66be 043f 7a3c 0c3f 08bc 0740 dab0 933e
00000240: 110b c9be 9f4a 883f 8aeb 4c3f 1770 993f
00000250: cc38 9d3e 986f e63e 9688 ef3e efee febe
00000260: dc94 78bf cb04 19bf 616d 013f 3abd 1f3f
00000270: 711d b2be 2606 38bf d8b9 b6bd fbac e23f
00000280: 3f9c 00bf 2263 dd3f 0ab3 cdbf 8ff4 ca3e
00000290: 9b92 dfbe 1e68 15bf 2f12 91bf 7cfa 3a3f
000002a0: a353 9d3e 5972 8b3e 9c2f 12bf 407e b33d
000002b0: ecce 8c3f 918c 9f3e b60c abbf a1af ab3f
000002c0: 09af febe 4c1e 1c3c 3c92 123f 4dbc 403e
000002d0: fbf7 0240 eb00 793f 3404 bebf e63e 453f
000002e0: 92cf b93d 6a49 26c0 c534 903e 206f 22bf
000002f0: 2a94 6ebd 02b4 ba3f 325c 08bf 73d6 c03d
00000300: 8280 583f bbdc 34bf 2de7 d13f a875 1d3f
00000310: de2b e43e df09 993f 95a3 babe cd7c bfbf
00000320: 9c2f 9b3e c8bf 75bf 7eb8 f63e 7328 fbbf
00000330: 4552 6bbf 85c6 bb3f 407b 8c3f 2f55 99bf
00000340: 0b6f dfbf 69ee 10be b124 3bbf e595 d73e
00000350: 1093 543d 4726 bdbe 6c2e b83e 243f ccbf
00000360: 1228 dc3f bac8 153c 9045 ef3e 7a74 21bf
00000370: c5ee 873e 6310 793f 6e99 143e 94ea d5bf
00000380: 6ac6 0740 0f76 fbbf eb65 d9bf 9562 2e3f
00000390: 863d 453d cd3e c4bf 1f2d c4bf 7b7a e5bf
000003a0: 0836 073c bd69 013d 161e d6be ce16 d43e
000003b0: fed3 79bf 3c76 913f b6dc 6f3e c381 1a40
000003c0: f1b3 b0be 6e84 b23d bae1 2e3f d361 c0bf
000003d0: 3e24 9f3c c070 2cc0 b02b a53e 2598 d3be
000003e0: 5b2b 353f c226 40be 4fc4 2f3f 4a0e 023e
000003f0: 25a0 193f 3973 723f c55b 273e c25a 943e
