tests/data/model-tests/checkpoint.pt (torch, 957287 bytes, 4 tensors)

region2vec.projection.weight f4 [2380, 100]
0	0x3f00a1bc	0.5024679
1	0x3faa1c06	1.3289802
2	0xbc942cf9	-0.01808785
3	0x3f8a0454	1.0782571
4	0xbf0f00a3	-0.55860347
5	0xbece10b5	-0.4024712
6	0xbf2e334e	-0.68047035
7	0xbfba154d	-1.453775
8	0x3f817300	1.011322
9	0x3f862a70	1.0481701
10	0x3f5cff9a	0.8632752
11	0x3fceb430	1.6148739
12	0x3f997f48	1.1991968
13	0xc0099ca4	-2.1501856
14	0xbea71487	-0.3263285
15	0x3d57507e	0.052566998
16	0x3fdf7529	1.745763
17	0x3f9ae88c	1.2102218
18	0xbecd1347	-0.4005377
19	0xbf9104e3	-1.1329616
20	0xbf082301	-0.5317841
21	0xbf67b889	-0.90515953
22	0xbebb4d2a	-0.3658231
23	0xbe28390d	-0.16428013
24	0x3da8864a	0.082287386
25	0xbec9d694	-0.39421523
26	0xbe3a56ff	-0.18197249
27	0xbffa244c	-1.9542327
28	0x3f54800e	0.83007896
29	0xbdb50b07	-0.08839994
30	0xbf994602	-1.197449
31	0xbdb74fe1	-0.089507826
32	0xbecec609	-0.40385464
33	0x3f4f55eb	0.80990475
34	0xbd6ba6a6	-0.057531975
35	0x3f36f139	0.71461827
36	0x3fc95d17	1.5731534
37	0xbf08d3ab	-0.5344798
38	0xbfaee2ff	-1.3663024
39	0xbde386dd	-0.111097075
40	0xbe8d1f38	-0.2756288
41	0xbf66fcf6	-0.9022974
42	0xbf35a012	-0.7094737
43	0xbf8b70fa	-1.0893853
44	0xbe94932f	-0.29018542
45	0x3faef592	1.3668692
46	0xbe2f86a2	-0.17141202
47	0xbfc7fe71	-1.5624524
48	0xbf1a9ca2	-0.6039525
49	0xbddb3a80	-0.10704517
50	0xbc850cb2	-0.016241405
51	0xbe1334f6	-0.14375672
52	0xbf06c053	-0.52637213
53	0xbed8c4be	-0.42337602
54	0x3f8b0388	1.0860453
55	0xbf933b49	-1.1502467
56	0xbd633f88	-0.05548051
57	0x3fdd3d05	1.7284247
58	0x3f449fce	0.7680634
59	0x3f69102f	0.9104032
60	0x3e8b6ad0	0.2722993
61	0x3f8404ba	1.0313942
62	0x3fc73430	1.5562801
63	0x3fc452ae	1.5337732
64	0x3ec7eed4	0.390494
65	0x3f8fbfc4	1.1230397
66	0x3d7e9fa5	0.062163968
67	0x3d7d7c33	0.061886024
68	0xbfcf92e4	-1.6216702
69	0x3f852705	1.0402533
70	0x3fbf8287	1.4961709
71	0x3f4a98a1	0.79139143
72	0xbf6895ef	-0.9085378
73	0xbf75dee8	-0.9604325
74	0xbda55b7d	-0.08074091
75	0x400f73ac	2.241435
76	0xbe2fa1aa	-0.17151514
77	0x3f36e187	0.7143788
78	0x3f30a2d1	0.6899844
79	0x3f31c658	0.69443274
80	0xbf67610e	-0.9038247
81	0xbf3937ca	-0.7235075
82	0xbe06b3e1	-0.13154556
83	0xbd0ced04	-0.034405723
84	0x4030e8e0	2.7642136
85	0x3fa2b7f9	1.2712394
86	0x3f43c2bf	0.76469034
87	0xbec204d5	-0.37894312
88	0x3f060595	0.5235227
89	0x3fbc7924	1.4724469
90	0x3e42ae18	0.19011724
91	0x3e72445f	0.23658894
92	0xbf185012	-0.5949718
93	0x3f5e3dcf	0.8681306
94	0x3fd40a0f	1.656557
95	0xbf417907	-0.755753
96	0xbf591fdd	-0.84814245
97	0x3ebfc873	0.37457618
98	0x3f247606	0.6424259
99	0x3f916729	1.1359607
100	0xbe8b6a92	-0.27229744
101	0x3d18674d	0.03720789
102	0x3f18a290	0.5962305
103	0x3f535ccd	0.8256348
104	0x3e0d7d51	0.13817336
105	0x3f6a20a8	0.9145608
106	0xbe86db68	-0.2633927
107	0xbf5cca2f	-0.8624601
108	0xbf4376ae	-0.76352966
109	0xbf96ccb5	-1.1781222
110	0xbf3c3d48	-0.7353101
111	0xbfcc961e	-1.5983312
112	0xbef04d5e	-0.46934026
113	0xbfdd5980	-1.7292938
114	0xbf138cb3	-0.57636565
115	0xbff6973a	-1.9264901
116	0xbdd87c0c	-0.10570535
117	0xbfd86ff1	-1.6909162
118	0xbf83f67d	-1.0309597
119	0xbf35fa52	-0.71085083
120	0xbf182136	-0.59425676
121	0x3e7e8a4f	0.24857448
122	0x3d149f24	0.03628458
123	0x3e69e8f4	0.22842771
124	0xbf88d82c	-1.069097
125	0xbf518c18	-0.8185439
126	0xbdcd64e5	-0.1002901
127	0xbe4315ca	-0.1905128
128	0x3f6f7598	0.9353881
129	0x3f9ac106	1.2090156
130	0x3ee39e58	0.44456744
131	0xbe6c94eb	-0.23103683
132	0x3f847d12	1.0350668
133	0xbf165cb4	-0.58735204
134	0xbf3d42f4	-0.7393029
135	0x3e781728	0.24227583
136	0xbef37d0d	-0.47556344
137	0x3d2aea07	0.041727092
138	0x3ea183e5	0.3154594
139	0xbe088398	-0.13331449
140	0x3fae3726	1.361058
141	0xbec99dab	-0.39378104
142	0x3ebbf0f3	0.36707267
143	0x3d602e37	0.054731574
144	0x3dce31f7	0.10068124
145	0x3facdbe5	1.3504606
146	0xbeb2588e	-0.34833187
147	0xbf40e0db	-0.753431
148	0x3f04a6cc	0.5181701
149	0xbf81ce77	-1.0141133
150	0xbf96c3bd	-1.1778485
151	0x3f7811d0	0.9690218
152	0xbd499837	-0.04921743
153	0x3e96bab3	0.29439315
154	0x3ef5a1f8	0.47975135
155	0x3ff7c9fc	1.9358516
156	0xbf92e39a	-1.1475708
157	0xbfa6fb2c	-1.3045402
158	0x3eb5d998	0.35517573
159	0x3ee5b675	0.44865766
160	0xbf4f7778	-0.8104167
161	0xbf09fe90	-0.53904057
162	0x3d2e4d24	0.042554036
163	0xbfc0866a	-1.504102
164	0x3fa5f715	1.2966028
165	0x3f1d6612	0.6148387
166	0xbf20a556	-0.6275228
167	0xbfbf08f1	-1.4924604
168	0xbfa30b3e	-1.2737806
169	0xbf5b87cf	-0.857541
170	0x3fd85d38	1.6903448
171	0xbfe4f6f8	-1.7887869
172	0x3f0581d7	0.52151245
173	0x3ec3f47a	0.38272458
174	0xbfc90502	-1.5704653
175	0x3f687833	0.9080841
176	0x3f2dd51d	0.6790331
177	0x3f119899	0.5687347
178	0x3ecef566	0.404216
179	0x3ddd64ca	0.108102396
180	0xbf89d023	-1.0766643
181	0xbf454faf	-0.7707471
182	0x3e301d8a	0.17198768
183	0x3faa01a4	1.3281751
184	0x3f1e7996	0.61904275
185	0xbf2571e0	-0.64626884
186	0xbe2508d9	-0.16116656
187	0x3f4f9a58	0.81094885
188	0xbe620ac9	-0.22074427
189	0xbde121d9	-0.10992784
190	0x3f3bde93	0.73386496
191	0xbfe1a1ad	-1.7627465
192	0xbe200ea4	-0.15630585
193	0xbf62df91	-0.88622385
194	0xbd96d332	-0.07364501
195	0x3fcf42ae	1.6192224
196	0x3dbae889	0.09126384
197	0x3f9e74d7	1.2379407
198	0x40104794	2.2543688
199	0x3e1de006	0.1541749
200	0x40145337	2.317579
201	0xbf24a5ae	-0.6431531
202	0x3f266f73	0.6501381
203	0x4008d027	2.1377046
204	0x3e2bf138	0.16791236
205	0x3f4a1785	0.7894214
206	0xbfb1bc7a	-1.3885643
207	0xbe0c1c08	-0.13682568
208	0x3cd55ec0	0.026046157
209	0xbfebbbaf	-1.8416651
210	0x3f5a46f1	0.852645
211	0xbe0b0db4	-0.13579446
212	0x3f19d27f	0.60086817
213	0x3f6a55fd	0.9153746
214	0xbf99ef35	-1.2026125
215	0xbdb35b44	-0.08757642
216	0x3f2e8eb9	0.6818653
217	0xbf21f2a7	-0.63260883
218	0xbea7def3	-0.32787284
219	0xbf0bc570	-0.5459814
220	0xbeee769a	-0.4657486
221	0x3f28301d	0.65698415
222	0xbf65f3dc	-0.89825225
223	0x3faf7911	1.3708822
224	0xbee9e54c	-0.45682752
225	0xbdc6ea80	-0.09712696
226	0x3e0edf32	0.1395233
227	0xbf15ec8e	-0.5856408
228	0x3e3c166d	0.1836793
229	0xbf1284da	-0.57233965
230	0xbf9459c5	-1.1589895
231	0xbfdcf269	-1.7261478
232	0xbf930f20	-1.1488991
233	0xbfa860ec	-1.3154578
234	0x3dba8b31	0.0910858
235	0xbf7a64aa	-0.9780985
236	0xbf0bdf16	-0.5463728
237	0x402833f8	2.628172
238	0x3fb77b8e	1.4334581
239	0x3f13e552	0.5777179
240	0xbf86b7cc	-1.052484
241	0xbe6d0f92	-0.23150471
242	0x3f0e5ab7	0.5560717
243	0x3e88fd5b	0.26755795
244	0xbdff467a	-0.12464614
245	0xbf178d94	-0.59200406
246	0xbe84722a	-0.2586835
247	0xbd82d8aa	-0.06388982
248	0xbf9df39a	-1.2339966
249	0xbe9e299d	-0.30891123
250	0xbed7286c	-0.42023027
251	0xbfc5b560	-1.5445976
252	0xbfb61176	-1.4224079
253	0xbe65d78b	-0.22445504
254	0xbe967144	-0.2938329
255	0xbeeab447	-0.45840666

attention.attention.weight f4 [1, 100]
0	0xbc23a0bf	-0.009987055
1	0xbccde538	-0.025133714
2	0xbcfa8dc1	-0.030585172
3	0x3d2a3336	0.041552745
4	0x3c605416	0.013691923
5	0xbcfcd020	-0.03086096
6	0x3db64f0f	0.08901798
7	0x3daf62c3	0.08563759
8	0xbd16df7a	-0.036834218
9	0x3d42be36	0.04754468
10	0xbcc65e90	-0.024215013
11	0x3c2e893e	0.010652838
12	0x3d16f1c1	0.03685165
13	0xbd5be19f	-0.053681966
14	0x3d1b0074	0.03784223
15	0xbdc29e06	-0.09502797
16	0x3d667316	0.0562621
17	0x3ba8c0d3	0.0051499396
18	0xbdb3fb69	-0.08788187
19	0x3c747184	0.014919642
20	0x3acc5e18	0.0015592007
21	0xbd94802f	-0.072510116
22	0x3d377d98	0.04479751
23	0x3d9d8ef4	0.07693282
24	0x3cf2cbd4	0.029638208
25	0xbd93a2c5	-0.0720878
26	0xbd5abe70	-0.05340427
27	0x3dd49940	0.103807926
28	0x3d8bd87c	0.068284005
29	0xbde3e77c	-0.111281365
30	0x3ca1faa0	0.019772828
31	0xbdc9ebeb	-0.09859451
32	0xbca319af	-0.019909708
33	0x3d35ec99	0.04441509
34	0x3b9192a2	0.004442529
35	0xbce60f2a	-0.028083403
36	0x3d6efb54	0.058345154
37	0x3d4eb4a3	0.050465237
38	0xbd939c53	-0.07207551
39	0xbc7b8ec4	-0.015353862
40	0xbc4246e1	-0.011857719
41	0x3c52193f	0.012823402
42	0x3d8ccfa1	0.068755396
43	0xbdbdb412	-0.09262861
44	0xbd683ff3	-0.05670161
45	0x3c22b644	0.009931151
46	0xbd06316f	-0.032761987
47	0xbdb9d616	-0.09074037
48	0xbd384f40	-0.044997454
49	0xbcdf2214	-0.02723793
50	0xba8dc336	-0.0010815624
51	0x3db3c03e	0.08776902
52	0xbdaf7959	-0.08568067
53	0x3c90f54d	0.017695094
54	0x3d8b38d0	0.067979455
55	0xbdb03904	-0.08604625
56	0xbdbb383b	-0.091415845
57	0x3b326788	0.0027222354
58	0x3b5ab411	0.0033371488
59	0xbda20d8f	-0.07912742
60	0xbd842a51	-0.06453384
61	0xbc91e252	-0.017808113
62	0xbd760311	-0.060061518
63	0x3cdaa8d2	0.026691828
64	0x3de483cd	0.111579515
65	0x3d4d53f3	0.05012889
66	0x3c982e0e	0.018576648
67	0x3d54ba53	0.051935505
68	0x3d68d8de	0.056847446
69	0xbca152b3	-0.019692754
70	0xbc8f1701	-0.017467024
71	0xbd8e3894	-0.06944385
72	0x3c2798c6	0.010229295
73	0x3d494a07	0.049142864
74	0xbd9fa51e	-0.077951655
75	0x3da3c81d	0.07997153
76	0xbdbe41cc	-0.092898935
77	0xbd238bbc	-0.039928183
78	0x3c1734aa	0.009228865
79	0x3db3b4a3	0.08774688
80	0xbcc15816	-0.023601573
81	0x3d251ade	0.040308826
82	0x3d6883d0	0.05676633
83	0x3dca4625	0.0987666
84	0x3d975f0a	0.07391174
85	0x3d759173	0.059953164
86	0x3d1161ea	0.03549377
87	0x3b911d76	0.004428561
88	0x3d96e89f	0.07368588
89	0x3db2b7a2	0.087264314
90	0xbbbacf48	-0.0057009794
91	0x3d1c51f8	0.03816411
92	0x3bc357f5	0.005961413
93	0xbda7a71f	-0.08186173
94	0xbd8cb602	-0.06870653
95	0x3d3b1472	0.045673795
96	0x3d591a79	0.053003762
97	0x3d3879b0	0.045037925
98	0xbdad0486	-0.084481284
99	0x3c121788	0.008916743

output_layer.weight f4 [6, 100]
0	0xbdd3e3c3	-0.103461765
1	0x3ce81e7e	0.028334852
2	0x3d8ce49a	0.0687954
3	0x3d936e93	0.07198825
4	0x3c6392f1	0.013890014
5	0xbd925d6f	-0.07146727
6	0x3d824139	0.063600965
7	0xbd99a7a2	-0.075026765
8	0xbd71697b	-0.058938485
9	0x3d1a6dc6	0.037702344
10	0xbd29a4f2	-0.04141707
11	0x3c879c32	0.016553972
12	0x3d9de24b	0.077091776
13	0xbd90fbd9	-0.07079286
14	0xbc4bd0c2	-0.012439908
15	0xbd611c6d	-0.05495875
16	0xbb7379f6	-0.0037151552
17	0xbd699568	-0.05702725
18	0x3d8ed7f3	0.06974783
19	0x3db12659	0.08649892
20	0x3dac4a6b	0.084126316
21	0xbd7fa367	-0.062411692
22	0xbd43a5e1	-0.047765616
23	0xbd6f7abb	-0.058466654
24	0x3c75fdc8	0.015014119
25	0x3bdffa72	0.0068352753
26	0x3ccfa8eb	0.025349101
27	0x3daffe9a	0.08593483
28	0xbd30db7a	-0.04317806
29	0xbd3c9190	-0.046037257
30	0xbd372994	-0.044717386
31	0xbcc8f5d3	-0.02453128
32	0x3d163de0	0.036680102
33	0xbdb3d8ec	-0.08781609
34	0xbda37540	-0.07981348
35	0xbd9f01f1	-0.07764042
36	0xbd96d7e7	-0.07365399
37	0x3cb9dcfc	0.022688381
38	0x3d7b290b	0.06131844
39	0xbd8f54ad	-0.069985725
40	0xbdb087a6	-0.08619623
41	0xbdc65b4e	-0.09685384
42	0xbc9dd50a	-0.019266624
43	0x3d0f5216	0.034990393
44	0x3bb6ad39	0.005574849
45	0xbd51f2f0	-0.051257074
46	0x3d81850c	0.06324205
47	0x3d46d26e	0.048540525
48	0xba0cc8dc	-0.00053705066
49	0x3d9d45d2	0.07679333
50	0xbb8fae2f	-0.004384778
51	0xbb55101b	-0.003251082
52	0x3d57029f	0.052492734
53	0x3d90d5d7	0.07072037
54	0x3d800b7c	0.062521905
55	0x3d8e9774	0.06962481
56	0xbcc1d148	-0.023659363
57	0x3d4db49d	0.050221074
58	0x3d054517	0.032536592
59	0x3db1399c	0.08653566
60	0xbd1cd37f	-0.038287636
61	0x3d9e12e0	0.07718444
62	0xbdb4727e	-0.088109
63	0x3b90438e	0.0044025844
64	0x3d4e05d2	0.05029852
65	0xbd61e22b	-0.05514733
66	0x3c4e306c	0.012584787
67	0x3b79efa1	0.0038137215
68	0x3d8df652	0.069317475
69	0xbda4958f	-0.080363385
70	0xbcdc52c2	-0.02689493
71	0xbb0c7cc3	-0.0021436668
72	0x3d828954	0.063738495
73	0xbb32fc23	-0.002731093
74	0xbbdb262d	-0.0066879005
75	0xbd7ea7a3	-0.06217159
76	0xbd9cf3d3	-0.07663693
77	0x3da17413	0.078834675
78	0x3cc8bd3f	0.024504302
79	0x3d85b500	0.06528664
80	0xbdacedcf	-0.08443796
81	0x3d38a768	0.045081526
82	0x3dac8896	0.08424489
83	0x3c227ee7	0.009917951
84	0xbd9f0f35	-0.077665724
85	0x3caab258	0.020836994
86	0xbc339888	-0.010961659
87	0x3cf7666f	0.030200211
88	0xbd64713e	-0.05577206
89	0xbc93a889	-0.0180247
90	0xbc6c7b70	-0.014433727
91	0xbce1d82d	-0.027568901
92	0x3d68537b	0.05672024
93	0xbd6ac131	-0.057313148
94	0xbb07f470	-0.0020745061
95	0x3ce9ffef	0.028564421
96	0x3d8e8d5d	0.06960557
97	0x3c7abe3b	0.015304144
98	0x3cfae357	0.030625982
99	0xbd2b2234	-0.041780666
100	0x3d64a95e	0.055825584
101	0x3c95aed3	0.01827184
102	0x3d4ce5b7	0.05002376
103	0x3ba4c908	0.0050288476
104	0x3ca4f584	0.020136602
105	0x3d6864ac	0.056736633
106	0xbd3dc2ed	-0.046328474
107	0xbdc13bd6	-0.09435241
108	0x3dd341f4	0.10315314
109	0xbb4680da	-0.0030289204
110	0xbcf41d8e	-0.029799249
111	0x3d1e319c	0.03862153
112	0x3b56fb34	0.0032803537
113	0x3dab6513	0.08368888
114	0xbb84b441	-0.0040498083
115	0x3d49fbb4	0.04931231
116	0x3dc32052	0.09527649
117	0x3a42ac5c	0.0007426196
118	0xbc8a7aa7	-0.016904188
119	0x3dc20872	0.09474267
120	0x3d38d441	0.045124296
121	0xbdb869d0	-0.09004557
122	0x3da94da0	0.08266759
123	0x3b66114a	0.003510552
124	0x3d5a6cfe	0.0533266
125	0xbcd40395	-0.025880614
126	0xbdb8f3ee	-0.09030901
127	0xbdc673bf	-0.096900456
128	0xbc8abf6a	-0.016936976
129	0x3c922378	0.017839178
130	0xbca6fecb	-0.020385167
131	0x3cba3588	0.022730604
132	0xbd1a11f9	-0.037614796
133	0x3d9a3ba3	0.07530906
134	0x3d870f42	0.06594707
135	0x3d8abc87	0.0677424
136	0x3d327ff0	0.043579042
137	0xbd3009b9	-0.042978022
138	0xbd56706c	-0.052353308
139	0x3da7f978	0.08201879
140	0x3da16c47	0.078819804
141	0x3d00f808	0.03148654
142	0x3dad6db6	0.08468191
143	0xbd6a913a	-0.057267405
144	0x3dc2c36a	0.095099285
145	0xbd6e6f49	-0.0582116
146	0xbd02b554	-0.03191121
147	0xbd16e6cb	-0.036841195
148	0x3dc50f5f	0.096220724
149	0xbd04498f	-0.032296713
150	0xbd08da4d	-0.033411313
151	0x3de7d4b8	0.1131987
152	0x3d7e5302	0.06209088
153	0xbd14ed8b	-0.03635935
154	0xbdc81eed	-0.097715236
155	0xbd3cee3e	-0.046125643
156	0x3c84857a	0.016176928
157	0x3d8aaf7a	0.06771751
158	0xbc18e8d5	-0.009332855
159	0x3cad2fa1	0.021140875
160	0x3ba4b869	0.005026866
161	0xbcda954a	-0.026682515
162	0xbc4baa6f	-0.012430771
163	0x3d97499b	0.07387086
164	0xbdad1a03	-0.08452227
165	0x3d739caa	0.05947558
166	0xbd8ebf79	-0.06970114
167	0xbd25e5d9	-0.040502403
168	0xbdb646be	-0.08900212
169	0x3d4a91c3	0.049455415
170	0x3d1068fd	0.035256375
171	0x3dabb629	0.08384354
172	0xbdb644ac	-0.08899817
173	0xbba40de7	-0.00500654
174	0x3d03dee0	0.032194972
175	0xbd9ac243	-0.07556584
176	0xbdbba938	-0.09163135
177	0x3d8e8745	0.06959394
178	0xbcb1428b	-0.021638175
179	0x3d90c1d3	0.07068219
180	0xbd3e48c9	-0.046456132
181	0x3d31e2a0	0.043429017
182	0x39a63593	0.00031701903
183	0xbd27c728	-0.040961415
184	0x3d72d6d6	0.059286915
185	0xbcee5471	-0.029093
186	0xbdad7100	-0.08468819
187	0xbd6a35bb	-0.057180148
188	0xbca02c93	-0.019552505
189	0x3d3c3553	0.04594929
190	0x3d184e0e	0.037183814
191	0xbc5863fc	-0.013207432
192	0x3db955ca	0.09049566
193	0x3d85569c	0.0651066
194	0xbccccecb	-0.02500095
195	0xbdd19b8a	-0.10234745
196	0xbd86f1c5	-0.06589083
197	0xbcb53762	-0.022121135
198	0xbd1a2b12	-0.03763873
199	0x3da47338	0.08029789
200	0xb8c9f416	-9.6298914e-05
201	0x3d1319c7	0.035913255
202	0x3d35e2d4	0.044405773
203	0x3b661978	0.0035110395
204	0x3a752099	0.0009350866
205	0x3d90acf8	0.07064241
206	0xbca0868e	-0.01959541
207	0xbdb17bde	-0.08666204
208	0xbc74f028	-0.014949836
209	0x3bcf77db	0.0063314266
210	0x3ce384ac	0.027773224
211	0xbdbb2218	-0.09137362
212	0xbcb2ba60	-0.021817386
213	0x3b5c6c73	0.0033633977
214	0xbd9959bf	-0.07487821
215	0x3cba9344	0.0227753
216	0xbd907f3c	-0.07055518
217	0x3db56299	0.08856697
218	0xbd27123b	-0.04078887
219	0xbd4a0b3d	-0.049327124
220	0x3dc2622e	0.094913825
221	0x3dc371a3	0.09543159
222	0x3dae2a84	0.08504203
223	0xbd9a2c4f	-0.075279824
224	0xbd9fbb6c	-0.0779942
225	0x3d3c934b	0.046038907
226	0x3da7f556	0.08201091
227	0x3d86bfdb	0.06579562
228	0x3db03975	0.08604709
229	0xbd958150	-0.07300055
230	0x3dce9489	0.100869246
231	0x3d4f62a1	0.05063117
232	0xbd98a399	-0.07453079
233	0xbd1caf33	-0.03825302
234	0x3d853a7e	0.06505297
235	0xbb3b9821	-0.0028624611
236	0xbb1de6f0	-0.0024093948
237	0x3ddd910b	0.108186804
238	0x3c2cd06c	0.0105477385
239	0x3ab93c8e	0.0014132427
240	0xbd96b831	-0.073593505
241	0x3c9f68ea	0.019459207
242	0x3dbc2a1d	0.0918772
243	0xbd1d2e24	-0.03837408
244	0x3c46b7ed	0.012128812
245	0x3db09099	0.0862133
246	0xbd4fcb07	-0.05073073
247	0xbb544684	-0.0032390663
248	0x3da612dc	0.08109066
249	0x3ce2c21b	0.027680447
250	0xbc4bcd1f	-0.012439041
251	0x3d30036f	0.042972025
252	0x3d226626	0.039648198
253	0x3d6c080a	0.057624854
254	0xbcf4f69b	-0.029902747
255	0xbc4213f1	-0.011845575

output_layer.bias f4 [6]
0	0x3ca05603	0.019572264
1	0x3cc21da8	0.023695782
2	0xbc9d4081	-0.019195797
3	0x3d74d85c	0.05977665
4	0xbced71eb	-0.028984984
5	0x3d834b3a	0.06410833
