tests/data/model-tests/checkpoint.pt (torch, 953323 bytes, 1 tensors)

projection.weight f4 [2380, 100]
000000 7e 3d 3a 3f 19 06 3f 3f 08 dc ad bd 0a 2a b4 3e
       0.7275008 0.7461868 -0.08489233 0.35188323
000010 2b f9 8e 3f f4 a8 2c bf 5d dd c3 3e 7b be 48 3f
       1.116979 -0.674453 0.38254824 0.7841565
000020 8d f7 77 bf 23 33 29 3e 58 01 d2 3d 81 c6 ae bf
       -0.9686211 0.16523413 0.102541625 -1.3654329
000030 05 a8 b7 3f f0 c4 88 bd 79 9a b3 be 59 88 54 3f
       1.434815 -0.06678188 -0.3507879 0.8302055
000040 18 3c bb bb 6a 56 9a bf 60 27 af bd ac 69 93 be
       -0.005713951 -1.2057621 -0.08552432 -0.2879156
000050 06 17 80 3e b3 a6 7b be bf 3d f7 bc 0b 10 a5 3d
       0.25017565 -0.2457531 -0.03018081 0.080597006
000060 5a 65 ab bf f8 4f 20 bd 00 9e b4 bf 02 60 23 bf
       -1.3390305 -0.039138764 -1.4110718 -0.6381837
000070 29 0a 7e be 55 78 c9 bf d5 e2 15 3f bd 84 86 be
       -0.24808563 -1.5739847 0.58549243 -0.26273146
000080 2e df 27 3e 4c 24 43 be 49 c7 e1 3f e1 20 a0 be
       0.1639373 -0.19056815 1.7638942 -0.31275085
000090 1a 06 76 bf 4d 6a 01 bf 13 f8 00 3f 68 e9 23 be
       -0.9610306 -0.5055283 0.5037853 -0.16007006
0000a0 ae e7 e3 3f 1d b7 2a 3f 16 ff 5d bf 28 5a a5 bf
       1.7805078 0.6668566 -0.86717355 -1.2918139
0000b0 17 0a bf bf a4 60 11 bf af bb 9f 3f 04 d5 e7 3e
       -1.4924954 -0.56788087 1.2479151 0.45279706
0000c0 7f 74 34 40 c7 0f 87 bd db 24 ab be 69 e2 05 bf
       2.8196104 -0.06594806 -0.33426556 -0.522986
0000d0 84 50 7a 3f 80 59 42 bf dd 54 cf be 3d ce 60 3f
       0.9777911 -0.75917816 -0.40494433 0.87814695
0000e0 72 b4 d4 3d 50 f8 71 be 67 6b 6e 3e fa 69 99 3e
       0.1038598 -0.2362988 0.23283158 0.29963666
0000f0 c2 e1 aa bf 03 33 0a 3f 29 d2 a1 bf 6f c0 29 c0
       -1.3350146 0.5398409 -1.2642261 -2.6523702
000100 2d 05 a2 3e ad dd 28 40 8c ca 8f 3f 5e 3d 31 3f
       0.31644574 2.63853 1.1233687 0.69234264
000110 9f 69 17 3f c1 81 08 be f4 0f 36 bf 69 29 8f be
       0.5914554 -0.13330747 -0.7111809 -0.2796128
000120 0e 25 93 bf a5 7f 1e 3f 1a e2 96 be 1c 2a 01 3e
       -1.1495683 0.6191352 -0.29469377 0.1261372
000130 18 9a d0 3f 78 08 1c bf 90 02 a6 bf 50 07 28 bf
       1.6297026 -0.6095042 -1.2969532 -0.6563616
000140 9f e9 04 3e bb d2 a0 be 31 5a 04 40 eb a4 8e bf
       0.12979744 -0.31410775 2.0680048 -1.1144079
000150 e2 dc d8 be db 93 70 3e 33 13 fb bf c8 cf a4 3f
       -0.4235602 0.23493902 -1.9615234 1.287591
000160 0e 42 4d bf 6e ea bc bf 23 59 74 3f 1f 49 cb be
       -0.80178916 -1.4759042 0.9544851 -0.39704224
000170 03 33 29 bf 29 f0 29 3d 08 b9 20 be 1e da ae 3d
       -0.6609346 0.0414888 -0.15695584 0.08537696
000180 9b 12 44 be 39 65 9d be c9 80 8c 3f 9b 9c 24 bf
       -0.19147722 -0.3074129 1.0976802 -0.6430146
000190 cf 91 0e 3f a8 6f 22 3f 51 da 0d be 45 5c 25 bf
       0.55691236 0.63451624 -0.13852812 -0.6459392
0001a0 b4 32 ae 3f 2f 3a 5f 3f 80 20 01 40 52 d9 86 3f
       1.3609223 0.87198156 2.0176086 1.0535071
0001b0 86 5d 08 be ce 0b 07 3d c9 fd db bd 18 ca fa be
       -0.13316926 0.032970242 -0.10741765 -0.4898231
0001c0 e2 8e 02 bf e0 79 35 bd 35 aa b6 3e 9c a8 fb bf
       -0.5099927 -0.044305682 0.35676733 -1.966083
0001d0 43 78 af 3e e9 ba 8c bf a5 f5 85 3d 95 60 df bf
       0.3427144 -1.099454 0.065409936 -1.745135
0001e0 02 26 18 bf c9 24 e8 be 5c e9 87 bf 8d bd d2 3e
       -0.59432995 -0.45340565 -1.0618091 0.4116024
0001f0 6f e0 70 bf 36 a6 0b c0 49 f0 18 bf e3 c8 47 3f
       -0.9409246 -2.1820197 -0.59741646 0.78040904
000200 71 2d aa 3f f7 2b b1 3f 4e 44 77 3f d0 9c c1 bd
       1.3295118 1.3841542 0.965886 -0.09453738
000210 be 8e b4 be 86 6b 6a bf 5b 6d 01 c0 60 68 6d 3f
       -0.35265154 -0.9157032 -2.0222995 0.9273739
000220 cf 4b b6 bd 6f 13 20 3e 82 65 8d 3f c2 9c 9d 3d
       -0.08901178 0.15632413 1.1046603 0.07695915
000230 6e 31 8d bf e2 15 b9 be 0e 9a 76 be 81 1e 55 3f
       -1.103071 -0.36149508 -0.24082205 0.8324967
000240 ac 03 fa 3d 62 f0 03 40 0c 2c 79 3f c7 1d c1 3f
       0.122077316 2.0615468 0.97332835 1.5087212
000250 c5 25 06 c0 e4 f2 c8 3e 8a bc ba 3f 98 5b cb 3e
       -2.0960553 0.3924781 1.4588788 0.39718318
000260 a7 01 71 3f 91 f7 a7 be f5 4b 17 bf 5f 89 0f c0
       0.94143146 -0.32806066 -0.59100276 -2.2427595
000270 34 cf 25 3e 8c f1 d6 3f 4c ec 03 bf ea 41 87 3e
       0.16192323 1.6792464 -0.51532435 0.26417476
000280 b9 2a 6c bf 18 17 69 3f ba 55 9c bf 91 f9 21 3f
       -0.9225269 0.91050863 -1.2213662 0.63271433
000290 37 58 f7 bf f0 e6 86 3b ed e5 12 bf e4 7e 5a bf
       -1.9323796 0.0041168854 -0.5738209 -0.8534987
0002a0 35 f2 02 bf db e1 da 3e e3 1f 59 3f ec b6 6c 3d
       -0.5115083 0.4275044 0.8481428 0.057791635
0002b0 62 43 da 3e 89 eb a4 3f 2f 29 da be 0c e6 e1 3e
       0.42629534 1.288438 -0.42609546 0.44120824
0002c0 a3 a1 3c 3f 99 c6 31 be be 20 88 bf f3 ed 69 bf
       0.7368414 -0.17360915 -1.0634992 -0.91378707
0002d0 8b a1 fb be c8 72 b7 bf 97 14 06 3f db 29 48 3e
       -0.49146685 -1.4331903 0.5237517 0.19547217
0002e0 f6 4e 74 be 98 8d 21 be 95 b5 af 3f d4 8b e6 be
       -0.23858246 -0.1577667 1.372729 -0.45028555
0002f0 3e b9 81 3f 1f 23 36 3e 16 94 45 bf 6d 16 9b be
       1.0134656 0.17786835 -0.77179086 -0.30290547
000300 32 4b e7 3e 37 dc a2 bf fa c9 09 3e 73 ca 0b c0
       0.45174557 -1.2723454 0.13455954 -2.1842315
000310 4d c0 89 be 0e ef 27 3f 94 df d7 bf 58 c1 03 bf
       -0.26904526 0.65599144 -1.6865106 -0.51466894
000320 b7 73 ef bf 5a e2 d0 bf 10 9c 99 be 62 37 59 3f
       -1.8707188 -1.6319077 -0.3000188 0.8485013
000330 9f 8b a3 3f 74 3a 89 bf ed 38 69 3f ca 82 50 bf
       1.2776984 -1.0720963 0.91102487 -0.8144957
000340 15 e5 1a bf 9d a4 94 bf 0a 12 87 3d 0f f3 69 be
       -0.605058 -1.1612736 0.065952376 -0.22846626
000350 b3 27 7a 3e 0b 1a 28 bf 1c be 2c 3f 79 50 0a 40
       0.24429207 -0.6566474 0.67477584 2.1611617
000360 a4 48 ac 3f 25 03 2d bd 7f 69 08 be 33 57 f1 be
       1.3459668 -0.042239327 -0.13321494 -0.4713684
000370 cb 9f ac bf 2a c8 f7 3f 07 f7 b9 3f 40 94 80 bf
       -1.3486265 1.935796 1.4528512 -1.0045242
000380 34 dd e8 3e 0e 35 04 3f b4 eb 6b bf 33 13 e7 3f
       0.45481265 0.51643455 -0.9215653 1.8052734
000390 35 22 17 bf 1a cc 93 3f c4 6e 23 3d 2c ae d2 be
       -0.5903657 1.1546662 0.039900556 -0.41148508
0003a0 d8 5e 0f 3e f7 ee 08 c0 8d 0e 8a 3f ec 5e 78 bf
       0.14001024 -2.1395853 1.078569 -0.9701984
0003b0 13 4a 77 3e 73 57 8a bf 59 0b 2f 3f 55 4a ac bf
       0.24149351 -1.0807937 0.6837669 -1.3460184
0003c0 b9 c1 23 bf 39 b4 3a be c4 8a 13 40 a9 a7 24 3f
       -0.6396747 -0.18232812 2.3053446 0.6431833
0003d0 74 81 c3 3e 1b 37 59 3f 45 3e 88 bf b6 f9 a0 3f
       0.38184702 0.8484971 -1.0644003 1.2576206
0003e0 00 55 78 bf 1e c5 b4 be 7c df c9 3f 66 c9 6a 3f
       -0.970047 -0.35306638 1.5771327 0.9171356
0003f0 7e 5d a8 bf 75 09 15 bf a3 12 4b 3f cf 71 34 3e
       -1.3153532 -0.58217555 0.7932531 0.1762154
